# YOLO11s RGB+NIR HalfwayFusion-C3 + P2-P5 PAN baseline.
# 8-class personmerge + traffic schema.

nc: 8
scale: s
scales:
  n: [0.50, 0.25, 1024]
  s: [0.50, 0.50, 1024]
  m: [0.50, 1.00, 512]
  l: [1.00, 1.00, 512]
  x: [1.00, 1.50, 512]

ch: 4

backbone:
  - [-1, 1, nn.Identity, []]

  - [0, 1, SilenceChannel, [0, 3]]
  - [-1, 1, Conv, [64, 3, 2]]
  - [-1, 1, Conv, [128, 3, 2]]
  - [-1, 2, C3k2, [256, False, 0.25]]
  - [-1, 1, Conv, [256, 3, 2]]
  - [-1, 2, C3k2, [512, False, 0.25]]

  - [0, 1, SilenceChannel, [3, 4]]
  - [-1, 1, Conv, [64, 3, 2]]
  - [-1, 1, Conv, [128, 3, 2]]
  - [-1, 2, C3k2, [256, False, 0.25]]
  - [-1, 1, Conv, [256, 3, 2]]
  - [-1, 2, C3k2, [512, False, 0.25]]

  - [[4, 10], 1, Concat, [1]]
  - [-1, 1, Conv, [256, 1, 1]]

  - [[6, 12], 1, Concat, [1]]
  - [-1, 1, Conv, [512, 1, 1]]

  - [-1, 1, Conv, [512, 3, 2]]
  - [-1, 2, C3k2, [512, True]]
  - [-1, 1, Conv, [1024, 3, 2]]
  - [-1, 2, C3k2, [1024, True]]
  - [-1, 1, SPPF, [1024, 5]]
  - [-1, 2, C2PSA, [1024]]

head:
  - [22, 1, nn.Upsample, [None, 2, "nearest"]]
  - [[23, 18], 1, Concat, [1]]
  - [-1, 2, C3k2, [512, False]]

  - [-1, 1, nn.Upsample, [None, 2, "nearest"]]
  - [[26, 16], 1, Concat, [1]]
  - [-1, 2, C3k2, [256, False]]

  - [-1, 1, nn.Upsample, [None, 2, "nearest"]]
  - [[29, 14], 1, Concat, [1]]
  - [-1, 2, C3k2, [128, False]]

  - [-1, 1, Conv, [256, 3, 2]]
  - [[32, 28], 1, Concat, [1]]
  - [-1, 2, C3k2, [256, False]]

  - [-1, 1, Conv, [512, 3, 2]]
  - [[35, 25], 1, Concat, [1]]
  - [-1, 2, C3k2, [512, False]]

  - [-1, 1, Conv, [1024, 3, 2]]
  - [[38, 22], 1, Concat, [1]]
  - [-1, 2, C3k2, [1024, True]]

  - [[31, 34, 37, 40], 1, Detect, [nc]]
